TF_model/imdn_rtc_time.tflite (tflite, 104488 bytes, 56 tensors)

model/imdn_rtc_imdb5_c4/BiasAdd/ReadVariableOp/resource f4 [3]
00000000: 2b4c 86bc dbc6 813d 5694 dd3c
-0.016393742 0.06336757 0.027048271

model/imdn_rtc_imdb5_c3/BiasAdd/ReadVariableOp/resource f4 [12]
00000000: 18e3 a6bd c52e 0d3e 3e53 6ebe 190a a03d
00000010: cbe8 a83d 2ee3 84ba e505 763c 313c 243d
00000020: e988 8c3d c0e9 cf3d 6770 2fbe fd93 70bc
-0.081487834 0.13787372 -0.23273942 0.07814426 0.08247527 -0.0010138506 0.015016054 0.040096465
0.06862051 0.10152006 -0.17132722 -0.014683721

model/imdn_rtc_imdb5_c2/BiasAdd/ReadVariableOp/resource f4 [12]
00000000: 55c0 8fbd cea7 ce3c 6e12 e43c 1007 92bd
00000010: 60f1 0d3d 2270 08be 1464 613d bdec fcbd
00000020: a651 a0bd 6ccd 3fbd afec debd 0726 593d
-0.07019106 0.0252265 0.02784082 -0.07130253 0.03465402 -0.13324025 0.055027083 -0.12349842
-0.07828073 -0.046826765 -0.108849876 0.05301478

model/imdn_rtc_imdb5_c1/BiasAdd/ReadVariableOp/resource f4 [12]
00000000: e18c 743e 46c8 8dbc 9d91 af3c 910d b5bc
00000010: 333d 523d c755 8b3d 91ff ef3d cbf5 30bc
00000020: 98ab 7c3d 13da 9b3c 25c2 093d 5dce 213b
0.23881866 -0.017307412 0.021431739 -0.022101196 0.051327895 0.0680347 0.11718667 -0.010800789
0.061687082 0.019024884 0.033632416 0.0024689652

model/imdn_rtc_imdb4_c4/BiasAdd/ReadVariableOp/resource f4 [3]
00000000: e83d c23d 651a 0ebc 40e4 d03e
0.09484464 -0.008673285 0.4079914

model/imdn_rtc_imdb4_c3/BiasAdd/ReadVariableOp/resource f4 [12]
00000000: 69e2 713c 009a 3cbf 441e 78be 2ba1 e1be
00000010: d7b4 60be 4633 59bd df7a f73d 81cc 523e
00000020: d3d6 81be f347 84bd 2688 073e 3fe9 2c3e
0.014763453 -0.73672485 -0.24230295 -0.44068274 -0.21943985 -0.053027414 0.12083983 0.20585825
-0.2535921 -0.06459036 0.1323553 0.16885851

model/imdn_rtc_imdb4_c2/BiasAdd/ReadVariableOp/resource f4 [12]
00000000: 5d54 0c3e 3605 e33d 0867 86bd c2ab 07be
00000010: 7d6d adbd 8722 96be 0277 bf3d a24f 5b3e
00000020: 4801 64bd 0a50 b53c 0101 963e d03b fb3c
0.13704057 0.11084978 -0.065626204 -0.13249114 -0.08468149 -0.29323217 0.09348871 0.21417096
-0.055665284 0.022132892 0.2929764 0.03066817

model/imdn_rtc_imdb4_c1/BiasAdd/ReadVariableOp/resource f4 [12]
00000000: 0dc4 cd3e cab2 62bf 25e0 f03e f9a2 a03e
00000010: 7c31 133f f392 db3e 10e1 6c3d eb3f 993d
00000020: 418a 1f3c 4eb1 173e ae74 89bc 9e71 b43e
0.40188637 -0.8855406 0.4704601 0.31374338 0.5749738 0.4288555 0.057831824 0.074828945
0.009737552 0.1481373 -0.01677927 0.35242933

model/imdn_rtc_imdb3_c4/BiasAdd/ReadVariableOp/resource f4 [3]
00000000: 693e 84be cfc2 f03d d8c7 8f3d
-0.25828865 0.11755907 0.07020539

model/imdn_rtc_imdb3_c3/BiasAdd/ReadVariableOp/resource f4 [12]
00000000: 6633 5e3d 11e7 dfbe 43af 2cbe a771 b23c
00000010: 2004 283e 6e74 b3bc cfbb 283e e24b c33e
00000020: 8dce b43d a33b e63b 1103 cebd 1ef8 bbbe
0.054248236 -0.43730977 -0.16863732 0.02178271 0.16407824 -0.021906104 0.16477893 0.38143831
0.08828459 0.007026152 -0.100591786 -0.36712736

model/imdn_rtc_imdb3_c2/BiasAdd/ReadVariableOp/resource f4 [12]
00000000: 5819 a73e 73f7 c63e bce0 f7bc 3618 afbc
00000010: 9cc4 723e d809 023e 170a d7bb d57f 8d3d
00000020: 8ec9 76be 28f7 333e 1b4b adbd 6609 a8bc
0.32636523 0.38860664 -0.030258529 -0.02137385 0.23707813 0.12699068 -0.006562482 0.06909148
-0.24100325 0.17574751 -0.08461591 -0.020512294

model/imdn_rtc_imdb3_c1/BiasAdd/ReadVariableOp/resource f4 [12]
00000000: d4b3 123f 82ad 133f 7722 5d3e a254 2abd
00000010: dc16 6d3e 4774 e73d f083 9e3e 900e 083e
00000020: c1cd 743e ece6 6d3e 454c 143f 9d41 61bb
0.57305646 0.57686627 0.21595179 -0.04158462 0.23153251 0.11301475 0.30960035 0.13286805
0.23906614 0.23232621 0.5792888 -0.0034371384

model/imdn_rtc_imdb2_c4/BiasAdd/ReadVariableOp/resource f4 [3]
00000000: 22b3 b0be 6130 233d da0b 0fbf
-0.34511667 0.03984106 -0.5587746

model/imdn_rtc_imdb2_c3/BiasAdd/ReadVariableOp/resource f4 [12]
00000000: 3158 bdbc 6b59 05be a2c2 55be ad9d dbbd
00000010: a4f8 89bd 69e8 55be ff0a 353d 9de8 413d
00000020: 6cff 1fbe 167f fb3d f82a 2abe b500 7bbe
-0.023113342 -0.13022391 -0.20875028 -0.10723434 -0.067368776 -0.20889439 0.04419994 0.047340978
-0.1562478 0.12280099 -0.16617954 -0.24511988

model/imdn_rtc_imdb2_c2/BiasAdd/ReadVariableOp/resource f4 [12]
00000000: de73 0c3e 75d0 c93e 35c3 973e 8d3d 92bd
00000010: a0e1 903e 4dd7 3c3e fbb0 87be f943 a1bc
00000020: 2d89 8dbe 4d52 36be c12e 273d 6880 96bd
0.13716075 0.39416853 0.2964112 -0.07140646 0.28297138 0.18441506 -0.26502213 -0.019685732
-0.2764372 -0.17804833 0.040816072 -0.0734871

model/imdn_rtc_imdb2_c1/BiasAdd/ReadVariableOp/resource f4 [12]
00000000: 36e0 133f 44b4 dd3e 078d 2f3f 2704 f23c
00000010: bf3a a03e 38cd 763d 8149 473e 7a15 563d
00000020: f4bb c13e 3b04 613e 0a52 bf3e 39fa 9a3c
0.57763994 0.43301594 0.68574566 0.029542996 0.3129482 0.060254306 0.19461633 0.052266575
0.3783871 0.2197427 0.37367278 0.018918144

model/imdn_rtc_imdb1_c4/BiasAdd/ReadVariableOp/resource f4 [3]
00000000: 8e95 8e3d b9eb 7ebe e33e d0bd
0.06962119 -0.24894609 -0.10168245

model/imdn_rtc_imdb1_c3/BiasAdd/ReadVariableOp/resource f4 [12]
00000000: 4ead 57bd d43b 38bf 9b65 4a3e 876a 51bf
00000010: 9a01 863e b18d 553d 1fe1 9b3d 2537 ff3d
00000020: fb2b 49bf fc1c a5be 7da0 73bc 2b0d 02c0
-0.05265551 -0.7196629 0.19765322 -0.8180317 0.26173097 0.05213708 0.07611298 0.1246169
-0.78582734 -0.32248676 -0.014869806 -2.0320537

model/imdn_rtc_imdb1_c2/BiasAdd/ReadVariableOp/resource f4 [12]
00000000: b3cd c3be 3f12 393f 9b0d 5ebd 8892 24bf
00000010: 7c52 323e 6868 d7bd 0fb8 6d3e d8b6 863d
00000020: 2d52 a83e e461 313f b438 a83e 06cb 2abd
-0.38242874 0.72293466 -0.054212194 -0.6428609 0.17414278 -0.10517961 0.23214744 0.065778434
0.32875195 0.69289994 0.3285576 -0.041697524

model/imdn_rtc_imdb1_c1/BiasAdd/ReadVariableOp/resource f4 [12]
00000000: db3a 4dbf 945c ec3d 56ed 053f 3911 5abb
00000010: c76e a13d 3288 35bb 3af0 8b3c bc94 0bbc
00000020: 8035 f13e 8291 893e 8fdb ddbd 0c0a a13e
-0.8016793 0.115410954 0.5231527 -0.0033274426 0.07882457 -0.0027699587 0.017082322 -0.008519348
0.4711113 0.26868826 -0.10832893 0.31452978

model/imdn_rtc_conv1/Conv2D f4 [12, 3, 3, 3]
00000000: 7a7a 6dbc b642 0d3d 1ec9 313d 8579 d4bc
00000010: 7f75 1a3e 8e21 143e fd7d abbc 081f 953d
00000020: cae8 6fbd 061a 393e eaf4 6b3e 4122 813c
00000030: e239 2abf c745 78be a877 ddbe 198f af3e
00000040: a531 a63d 55f4 61be 6b6d c43c b8d7 2b3d
00000050: 358c e73c ba8b d73d 8d2a 263e 634c be3d
00000060: 9734 b5bc fd6b babd df5c e63c c996 233b
00000070: 8b93 0e3d 48ab a83d 62f1 79bd cfa9 8d3c
00000080: 1578 703c 23e4 e1bd 1418 bf3d 5002 793d
00000090: d1f9 82bc 944f f2bd f62d 88bd 50d7 803e
000000a0: 4b92 633f 69ef a6bd 2acc f83d 9599 97be
000000b0: d807 b4be fda9 cdbb 328e bebd 15b5 6d3d
000000c0: 1dde 23be 06ad 0dbe d371 a23d c872 83bd
000000d0: db65 a9bd 9ed1 8f3c b0fd 8dbc 25ef 8c3d
000000e0: 9d67 c13c 3b41 fb3d 803b d2bd 4cec f7bc
000000f0: 0f17 153d 79b1 d9bd 2232 a33d 5e78 44be
00000100: d2db e43d 3d12 c0bc 87ef 093e 558c 64bd
00000110: b50d 403e a6de 413e 281a 19be b566 273d
00000120: 1baa 99bd 769a 033b b321 d4bd 0809 bbbc
00000130: c005 5f3d 0949 77bd d830 bb3c b196 06be
00000140: 23fe 3f3d c81c d43c a33d 923d 067b e4bb
00000150: 5b5a 573e 5525 53bd 2154 a2bc 725e 8c3d
00000160: e80a cd3b 1ded b03c f4c6 503d f3b5 623e
00000170: 2f22 e83d cdb7 3dbe 4619 ddbe bdb6 c83d
00000180: 09c4 85be e9a5 bdbe 83fd bebd 8fa6 963d
00000190: bd64 393e 46a2 f7bc d9e8 fd3c d46c 1e3e
000001a0: ce2d 3e3e caeb 10bd 7dbb b9bc c81d fcbb
000001b0: 2e94 a43c 6392 883d 5017 e9bd 4318 303d
000001c0: a690 76bd 0177 013d ded0 c4bb 245c 04be
000001d0: b940 843d b6c6 313e fdba 0ebd 719f 843e
000001e0: d7fa cc3e 6411 783e 4030 373d e6cb 03be
000001f0: 0456 913e 8ddf f93d 359f 11bd 7512 09be
00000200: 15ae 643d 55f1 133e fb2d 283e b3af 483e
00000210: ec68 4b3d 5fa3 a7bd ccc6 823d 03a5 ab3d
00000220: febc 1d3c d65b 4abd 85b0 f63d 8f31 2bbd
00000230: 91a6 72be 3e96 913d 2309 383d 027b 9e3c
00000240: f08a c4bd 5d62 be3c 3514 5fbe d611 59be
00000250: 9714 013e 318b f8be ee2a cfbd 6250 313e
00000260: 29a6 e93d d782 b03d 1e4a 773a 2eb8 fb3c
00000270: 0e91 3abd 89c4 6d3e 09de 82bd ffea bb3d
00000280: 5132 663d 4c90 ec3d 2487 85bd 646d bc3d
00000290: a6df 34bd 776f 2d3d 8bd2 d53d 50a7 913d
000002a0: 7faf 3fbd f68c e13c c619 94bd 02d9 cdbc
000002b0: ffac a23e 6b13 cbbc f0b5 ccbd 1bfe 0a3f
000002c0: 0adc 49be 18e1 f4bd f58e fa3d f582 f93d
000002d0: 1c3c 29be bc9c a83d de31 e8bd f72f 90bd
000002e0: 6e6b 2dbd d53b 1fbe 1efe 87bd e4fd 8e3d
000002f0: 892b fabd c569 88bd 71ae 483d fd51 3bbd
00000300: 59df 203d d758 abbd ecec 8cbd 23f5 d7bd
00000310: e32d ae3c 35ee c93b 640b e3bd 7133 9bbe
00000320: 12cd 0cbd 7801 d93b 6908 ea3e 979b 5a3e
00000330: f45a 4b3e b8a0 54bd 8d23 5ebe 84db d5bd
00000340: 1d00 dc3c d7b3 dd3c 35cc 143c 8d80 1c3d
00000350: de2f f83d 4346 97bc 1879 8dbd b65f ab3d
00000360: 2bd5 04bd 59c5 8bbd 9b8d 92bd 9139 49bd
00000370: cd52 303c 9f54 9bbd 7856 89bd 1ca0 a83d
00000380: a584 8fbd d4b6 0d3e 536c 263d 0c83 64be
00000390: 914e dabe 8038 ba3e 48a3 fb3e db52 893e
000003a0: e3a5 19be 3681 41be 5917 d53d 3b6e f4bd
000003b0: 5557 7f3d 2de5 8d3d 74d0 4e3d 66f2 69bd
000003c0: 4636 38bc 71d7 30be 0f5a 013e 3bfe 07bb
000003d0: 6928 483c fdbf 9a3d afa7 3fbe 02d9 c7bc
000003e0: 3c56 ce3d 82fe 033d def6 7fbd 058e 843d
000003f0: eace 6dbe 4b59 b1bd 44fa 643e dbc5 1ebf
-0.014494533 0.03448745 0.04340469 -0.025936851 0.15083884 0.14465925 -0.0209341 0.07281309
-0.058571614 0.18076333 0.23042646 0.015763404 -0.6649457 -0.24245368 -0.43255353 0.34288862
0.08114938 -0.22065862 0.023977956 0.041953772 0.028265098 0.105246976 0.1622717 0.09291913
-0.022119803 -0.091026284 0.028120456 0.00249617 0.034808677 0.08235794 -0.061021216 0.017292885
0.014677067 -0.11029842 0.093307644 0.06079322 -0.015988262 -0.118315846 -0.06649391 0.2516427
0.888951 -0.081511326 0.12148316 -0.2960936 -0.35162234 -0.0062763677 -0.09304465 0.05803402
-0.16002698 -0.13835534 0.079318665 -0.06418377 -0.082713805 0.017556008 -0.017332882 0.06881551
0.023608977 0.12268301 -0.10265255 -0.030264042 0.036398944 -0.10629553 0.079685465 -0.19186541
0.1117474 -0.023446197 0.13470279 -0.055797894 0.18755229 0.1893259 -0.14951384 0.040869433
-0.07503148 0.002008108 -0.1035799 -0.022831455 0.054448843 -0.060372386 0.022850439 -0.13143422
0.046873223 0.02589263 0.071406625 -0.0069726733 0.21030562 -0.051549274 -0.019815506 0.068539515
0.0062574036 0.02159744 0.050970986 0.2213972 0.11334645 -0.18527146 -0.43183345 0.098004796
-0.26126125 -0.37040642 -0.09325697 0.07355987 0.18104835 -0.030228745 0.03099482 0.15471202
0.1857216 -0.035381116 -0.02267241 -0.00769398 0.020090189 0.06668546 -0.113814 0.042991888
-0.06019654 0.03160763 -0.006006344 -0.12925774 0.06457657 0.17360958 -0.034846295 0.25902894
0.40035126 0.24225384 0.04472375 -0.1287075 0.28385937 0.12200842 -0.035552222 -0.13385947
0.05583008 0.1444753 0.1642379 0.19598274 0.04966061 -0.081854574 0.06385574 0.08381083
0.009627579 -0.049403988 0.12045387 -0.04179531 -0.23696353 0.071087345 0.04493059 0.019345764
-0.09596813 0.023240263 -0.21785052 -0.2119821 0.1260551 -0.48543695 -0.1011561 0.1731582
0.11408646 0.08618706 0.00094333466 0.030727472 -0.04554849 0.23219503 -0.06390006 0.09175681
0.05620033 0.1155096 -0.06519917 0.09200552 -0.0441586 0.04234263 0.104405485 0.071119905
-0.046798225 0.027533036 -0.072314784 -0.025127891 0.3177261 -0.024789533 -0.09995639 0.54293984
-0.19712844 -0.11956996 0.12234298 0.12183181 -0.16526836 0.0823302 -0.113376364 -0.070403986
-0.04233878 -0.15550168 -0.06640266 0.069820195 -0.12215335 -0.06660799 0.048994485 -0.045732487
0.0392755 -0.08366554 -0.06881127 -0.10544803 0.021262115 0.0061624297 -0.11086157 -0.30312684
-0.034375258 0.0066224895 0.4570954 0.21348415 0.19858915 -0.051911086 -0.21693249 -0.1044226
0.026855523 0.027063293 0.00908189 0.038208533 0.12118505 -0.01846612 -0.069078624 0.08367865
-0.032429855 -0.068247505 -0.07155915 -0.049127165 0.010761929 -0.075844996 -0.06705946 0.082336634
-0.07007722 0.13839275 0.04063065 -0.22315615 -0.42638066 0.3637123 0.4914801 0.26821026
-0.15004687 -0.18896946 0.10404844 -0.11935087 0.062339146 0.069284774 0.050491765 -0.057115935
-0.011243409 -0.17269684 0.12632011 -0.0020750898 0.012216666 0.0755615 -0.1871631 -0.02439547
0.10075042 0.03222514 -0.06249129 0.064724006 -0.23223463 -0.086596094 0.22361094 -0.62020653

model/imdn_rtc_imdb1_c1/Conv2D f4 [12, 3, 3, 12]
00000000: 79a9 1b3f 1a47 f2be a51e ac3e 0033 a6be
00000010: 6dc8 83be 8c3f 0e3f bc07 6ebf e4b1 10be
00000020: e042 e73e 9cca ab3e e0dc 78be c440 373c
00000030: ac04 bc3e 399a c1be 1a71 0b3f d941 453d
00000040: 311c 88bd 01c3 a6be be09 ae3e afde 3dbf
00000050: d23e 13bf dd7c d1be 07ed 1d3f fa4a 993e
00000060: 4d3a 22bf 49de 003f 2538 3dbe 719e ddbe
00000070: f007 adbe 2ccb 913e 4c87 653e e5ac b43e
00000080: 0f51 0c3f b290 c93d 87bf 59be 652e 033f
00000090: 55b0 5e3f d1d2 a63e 9255 473f 944a 92be
000000a0: cdbd 5dbe 2493 6cbe 7be3 71bf f83c b53e
000000b0: 1702 20bf 431e f83c 2168 c33d 44cc 953f
000000c0: 11f0 2abe 1784 033f 53e2 f53e caab 763e
000000d0: 3904 bb3d 79d3 06be 655a f3bd a914 1c3f
000000e0: 2481 1cbe b4e0 493f d273 3abf 2638 c13e
000000f0: b913 efbc b91c 85be bbe4 74bd d698 89bf
00000100: cbcc 20be a54d 373f 18b4 01bf 311b 463f
00000110: 83b4 0c3e fa89 723e 54c2 c7be bb10 bc3e
00000120: 8dc6 863e ef41 22be 2709 273f e45b bb3e
00000130: f40d 87bd 0a28 31be ab68 c5be 0b2b 3fbd
00000140: 7f33 5dbc 7b71 91bd 52be 053f 18da 353f
00000150: 5bdf b03e 0f91 b2be c8b5 283f 4a08 c93e
00000160: c07a 30bd b722 8ebe 2851 b03d 4613 453e
00000170: a67b 6ebe f173 8c3d 060e 42be 76e2 ff3e
00000180: 6ffc 1ebe 05ce 323f a449 173f 9a8b 8cbd
00000190: d86c 87bd 80ad c83e 380c 9fbe 19fe 1dbf
000001a0: 97a1 d13d 0c64 c53e 5af4 82be 2d2c 213f
000001b0: 8e24 41bd 2a5a 653e 739b 983d 9051 5a3d
000001c0: fa3f 9a3e be11 703e cddc 15be f7a4 9abd
000001d0: 3d50 fb3e eba6 75bb 1dc2 20bb 57ef d0be
000001e0: a1de 44be 9e94 643e 18bb 923d 5e5f 683e
000001f0: 4d30 653d 6c5a 8e3e 8f3d a93e 0d87 8d3e
00000200: 3872 ab3d f625 103f 98ea 763e 7e6f cbbd
00000210: da0d cb3d fd1b be3d 78f8 6ebc 7377 97be
00000220: 6806 3f3e 7261 453d b779 5cbe c2b4 15bf
00000230: 4e3e bf3e e7c5 48be 4026 acbd 6015 95be
00000240: eb5d 3a3c 0037 9ebc 3a8f 32bd fa63 923d
00000250: 5ce1 d63d f3b0 d0bc 24ce 273e 99e6 643e
00000260: 9575 033e 1e9f 923e b174 033e ed49 fcbe
00000270: 2708 eebd 412f 1cbf bda0 b7be 36e9 c43e
00000280: 1ca1 e3be ccfc b5bd 98cf 403e 35e2 67be
00000290: 62d1 52be 556e 8bbf a5bf 4bbe 996e 4f3f
000002a0: 72f0 27be cf26 dd3c ba51 a7be 81ab eabd
000002b0: 08df 173e 3e35 d8be 368c 103e 4191 39bd
000002c0: 76f5 c63e d7ce 553e bd6c fabe 5225 b1be
000002d0: c34d 10bd 21f7 2dbe 4b9e d53d a9fb 143e
000002e0: 373e d03d 7fe8 113d 5d0c 0e3d 44ff f93d
000002f0: fe1e b53d b3ff 46be 3fbc 443d e136 5bbe
00000300: 7beb bdbe 6b3e 523d c4ee 3b3e 1297 263d
00000310: 3f92 6a3d 4570 ee3d 9171 3f3d ff1d 8c3e
00000320: 2f49 b43e 201f cb3e 31fd e53d 481e 11bf
00000330: 82e8 d73d 3781 923d b443 0e3e f8c4 8abe
00000340: 3f3f 8abc 466f 313d 35bf 84bd 52a8 aabe
00000350: 3279 f6bd 2d8a 3b3d f73a 1bbe 4f00 413d
00000360: 3372 9a3d 316c 81be 9da9 283d aa2d fcbd
00000370: 7ec4 ce3d beb1 68be 49fb 9ebd 6147 14be
00000380: aaa2 12bd b2bc cd3d d5d9 a93d 1726 75bd
00000390: 68f4 3c3c 40ad 56be 94e9 943e ee2d 9a3d
000003a0: 817b 433e c432 2e3e 7289 5a3e 0985 f8be
000003b0: 264e 1d3f e5a2 0ebd 9f5a 153e 3b96 813e
000003c0: 0150 a43d b058 703d a476 643d 4a4e aabd
000003d0: 6223 1bbd ae9c 53bb 2157 63bd d765 11be
000003e0: 7436 0f3e 7a8b 253e 3e01 46bc eff5 31be
000003f0: cd56 a83d a704 29bf 2c11 dbbd ed8f 5ebe
0.6080547 -0.4731987 0.3361713 -0.32460785 -0.2573885 0.55565715 -0.9298055 -0.1413036
0.4516821 0.33553016 -0.24303007 0.011184875 0.36722314 -0.37812975 0.54469454 0.0481585
-0.06646002 -0.3257065 0.33991808 -0.74167913 -0.5751773 -0.40915576 0.616898 0.29940015
-0.6337021 0.5033918 -0.18478449 -0.43284944 -0.33795118 0.2847532 0.22414893 0.35288158
0.54811186 0.098420516 -0.21264468 0.5124267 0.8698781 0.32582715 0.77864945 -0.28572524
-0.21654435 -0.23103005 -0.9448773 0.35398078 -0.6250319 0.030287867 0.095413454 1.1702962
-0.1669314 0.5137343 0.48024234 0.2408897 0.09131665 -0.13166608 -0.11882476 0.60969025
-0.15283638 0.78858495 -0.7283298 0.3773815 -0.02918421 -0.25998476 -0.059788447 -1.0749767
-0.15703122 0.7160285 -0.50665426 0.7738524 0.13740735 0.23685446 -0.39015448 0.36731514
0.26323357 -0.15845464 0.6524834 0.36593544 -0.06594458 -0.1730043 -0.38556418 -0.04667191
-0.013501047 -0.07101723 0.5224353 0.7103591 0.34545407 -0.34876296 0.65902376 0.39264137
-0.043085814 -0.2776086 0.08609229 0.19245633 -0.23289356 0.068580516 -0.18950662 0.49977463
-0.15525983 0.6984561 0.5909674 -0.068625644 -0.06612557 0.3919487 -0.3106401 -0.6171585
0.10235899 0.38552892 -0.2557705 0.6295803 -0.047154002 0.22397676 0.074515246 0.05330044
0.30126935 0.23444268 -0.1463501 -0.07550996 0.49084654 -0.0037483524 -0.0024529763 -0.40807602
-0.19225551 0.22322318 0.071645916 0.2269263 0.055954266 0.2780336 0.33054778 0.27642098
0.08371395 0.56307924 0.24112928 -0.09933375 0.09914751 0.09282682 -0.014585607 -0.2958332
0.18654788 0.048188634 -0.21530806 -0.5847894 0.37352222 -0.19606744 -0.08405733 -0.2911787
0.011374931 -0.019313335 -0.043593623 0.07147975 0.10492203 -0.025475001 0.1638723 0.22353591
0.12837823 0.28637022 0.12837483 -0.4927515 -0.11622649 -0.61009604 -0.3586482 0.38459176
-0.44458854 -0.08886108 0.1882919 -0.22644885 -0.20587686 -1.0893046 -0.19897325 0.81028134
-0.16400316 0.026996044 -0.3267954 -0.11458493 0.14831173 -0.4222812 0.14115986 -0.04530454
0.38859147 0.20879684 -0.48911086 -0.34598786 -0.03523041 -0.16988803 0.104305826 0.14549126
0.101681165 0.035622116 0.03467976 0.12206891 0.08843802 -0.19433479 0.048031088 -0.21407653
-0.3709372 0.051329058 0.183528 0.040671416 0.057268377 0.116425075 0.046739165 0.27366635
0.35212085 0.39672184 0.11229933 -0.5668683 0.10542394 0.07153552 0.13893014 -0.271034
-0.016875861 0.04331901 -0.06481782 -0.33331543 -0.12034835 0.04578607 -0.15159212 0.047119435
0.07541313 -0.25277856 0.04117738 -0.12313397 0.10096072 -0.22724053 -0.077627726 -0.14480354
-0.03579966 0.100457564 0.08293501 -0.05985078 0.01153288 -0.20964527 0.29084456 0.07528292
0.19090082 0.17011553 0.21341494 -0.48538998 0.6144737 -0.034823317 0.1458535 0.2530993
0.08023072 0.05867833 0.055777207 -0.08315714 -0.03787554 -0.0032289433 -0.055503014 -0.14199005
0.13985616 0.16166487 -0.012085257 -0.17378972 0.08219681 -0.66022724 -0.10696635 -0.21734591

model/imdn_rtc_imdb1_c2/Conv2D f4 [12, 3, 3, 9]
00000000: a8f9 be3c fce5 573c 9e44 f33d 661d 663b
00000010: 94bc 09bd 430f f1bd 3f94 ccbd 1478 7fbe
00000020: 8b90 383d 207c 293c 4b59 4d3d 4c8f 153e
00000030: 6927 9dbd 85ce 9bbd bc94 82be 3a72 a03c
00000040: b34c 84be e17c b63c 69c9 7e3b 1e5b c33d
00000050: 84cd a53d 6531 d0bb 36c9 bcbd c1d8 32bd
00000060: ec70 31bd ed85 53be 67ce 0b3e b2a7 55bc
00000070: 0c65 1e3e 583e 3f3d 2722 f3bd 610f 7dbb
00000080: 6a5e e2bc c157 373e b2f2 59be 8e98 3cbb
00000090: 9e20 7ebd caf5 833e 811a 113e 131a 363f
000000a0: f6cf a03c 2cf9 793f 55e0 1abe 2029 0f40
000000b0: c9de 2e3c 6f43 583b 2091 b73d 3472 823d
000000c0: 40ed 443d 2874 fa3b 90c0 95bd 2dfb 83bd
000000d0: 8c74 12be 1a7d 3b3c 7a20 1fbc d38f e83c
000000e0: 550b 5a3d 1130 a0bc a476 8eba 4b31 1f3c
000000f0: 4e50 a4bd 7e75 0abe 6f5a eb3a 221d 4e3d
00000100: f941 0d3d 79af 863d 7dcf 42be 2a4e d63b
00000110: b015 e4bd 180d bf3d 4e7b d9be 4733 bb3b
00000120: b06c fdbc f7d5 c93c a1c5 2b3d 1c4c 38bd
00000130: 1c52 863b 01a1 af3c 26b7 b3bc fbe4 f4bd
00000140: 7408 853c af4c 4b3c 89bf e4bd 3eb6 aebe
00000150: 3b60 debd d388 b33d 0529 913d 70d9 193e
00000160: 3800 393d 6076 28bd 0deb 26be 7227 79be
00000170: 823c eabe fd76 993d 4227 4a3e ade5 a53e
00000180: da14 06be 941d 0d3e d400 8bbe 7e13 293e
00000190: 013b cabd 9d52 e6bd 2f29 ce3d 8b93 333e
000001a0: 2dcd 32bd 5cee ec3d 9922 42bd 3d05 48bc
000001b0: 7a18 9ebd 587c a23d f498 80bf 8268 fe3d
000001c0: 930f 17bb 1147 183e d111 adbe 6b8f 333e
000001d0: c492 94bd d6b4 ccbe 207e 283f a2e0 4abf
000001e0: 5874 15be 7880 fd3d ec4d 20bf e634 dc3e
000001f0: 10bd a8bd b638 c9bd 6c69 2f3e 6dda ef3d
00000200: e33e 19be daf8 143e d086 193d 8202 b3bd
00000210: 4ef9 803d 7337 05be 5603 e7bd 2cfc c33c
00000220: 70a9 103d 38bc 9cbe 4254 423e a924 f43c
00000230: 9c0c bf3c 72b8 fc3c 4f02 f03d ce48 fcbc
00000240: 05ab 40bd e837 48be 903d b3be 7fca 9dbc
00000250: 9659 da3c 658f ebbc 2db2 64be 57e4 abbe
00000260: 0ae9 8f3d fc9e 293e 55ca db3d 14af 15bb
00000270: 83c8 85be 064c a23d 9637 cc3c 015c 25be
00000280: 2eae cf3d 27e6 cfbd 1601 71be 9090 7cbd
00000290: 9eae 9d3e fad4 953e 792e 4abd 9d73 45bd
000002a0: 7e37 be3e 5334 143e 861f d83d d629 0c3e
000002b0: 17ce 8cbe eadb 903e 5d22 99be 6c10 fd3e
000002c0: c0c0 77be d8d2 39bc 02b4 4cbf 342a 31bf
000002d0: 862d 923c d9b2 69bd 9ba8 ce3d 560e 093d
000002e0: 2b07 463e 570b eabc e729 65bd 92d3 203e
000002f0: c9e1 c03e ea89 10bf f112 edbd b547 403e
00000300: 3b3f 2b3e 8181 2cbe 9133 ea3e 87bf 2cbe
00000310: 2b52 b63e bdf2 443d 322d 5f3e 2fe5 e53e
00000320: 11d1 453e 4da9 903d faf6 ebbe 6cc9 2cbe
00000330: 99ce fc3d cd3f bf3e 4064 053e 05df 0d3d
00000340: e81f 873e 8b17 bd3d 8dc7 d8be ecba c9be
00000350: 4c80 21bf 3b29 22be fc59 35bf 89db 0d3e
00000360: c1f5 c2bc b388 93be 46cc 35be 74ce 28bf
00000370: 0dee 01bc 4a68 253e dfb4 16be 2e47 a6be
00000380: e50a 173c bab4 053d b053 653d b0ce 94bc
00000390: 1cae 243f 46b0 ae3c 9d58 103f 03f3 893c
000003a0: eaa5 313f 9345 093c 6186 9cbd 5291 8f3d
000003b0: c58b 563c c995 0b3e deed ac3d 3cd5 93bd
000003c0: 0bdc f43d 3f5a 3e3d f858 e6bd eeba f5bc
000003d0: a54b f73c 26d0 0c3c 4ee7 5d3d 4484 c5bc
000003e0: d319 bcbc 08fc 023c edb6 81bd 5aae f43d
000003f0: 5aa4 363c afe4 a1bc b0ef 7c3d 0431 3cbe
0.023312405 0.013177391 0.11878322 0.0035112738 -0.033627108 -0.11770489 -0.09989213 -0.2494815
0.045059722 0.010344535 0.050133985 0.14605445 -0.076735325 -0.0760775 -0.255041 0.019585717
-0.25839767 0.022276344 0.0038877374 0.095388636 0.080958396 -0.0063535445 -0.092180654 -0.043663744
-0.04332058 -0.20656557 0.13652955 -0.01304047 0.15468234 0.046690315 -0.118717484 -0.0038613903
-0.02763291 0.17904569 -0.21283987 -0.0028777453 -0.062042825 0.2577346 0.14170267 0.71133536
0.019630414 0.9764583 -0.15124638 2.236885 0.010673233 0.0032999178 0.08963227 0.06369439
0.04807782 0.0076432414 -0.07312119 -0.06444392 -0.14302272 0.011443401 -0.009712333 0.028388893
0.053233463 -0.01955417 -0.0010869098 0.009716342 -0.080231294 -0.13521382 0.0017956028 0.050320752
0.034486745 0.065764375 -0.19024463 0.0065400796 -0.11136949 0.09328669 -0.42476887 0.0057129
-0.030935615 0.02463816 0.04193652 -0.04499446 0.0040991437 0.021439077 -0.021937918 -0.11957737
0.016239382 0.0124084195 -0.11169345 -0.34123415 -0.10858198 0.087663315 0.07087902 0.15024352
0.045166224 -0.041128516 -0.16300602 -0.24331453 -0.4574929 0.07493398 0.19741538 0.3240179
-0.13093892 0.13780814 -0.2714907 0.16511342 -0.09874535 -0.11246226 0.10066449 0.17536752
-0.043652702 0.11568901 -0.047396276 -0.01220828 -0.07719512 0.07933873 -1.0046678 0.12422277
-0.0023050054 0.1487086 -0.33802655 0.17535178 -0.07254556 -0.39981717 0.6581745 -0.7924901
-0.14595163 0.12378019 -0.626189 0.43009108 -0.08239186 -0.0982527 0.17130059 0.11711583
-0.14965396 0.14548054 0.037482083 -0.08740713 0.06297551 -0.13009433 -0.11279933 0.023923956
0.03531784 -0.3061235 0.18977454 0.029802637 0.023321442 0.03084967 0.1171919 -0.030796435
-0.047038097 -0.19552577 -0.35007906 -0.019261597 0.026654046 -0.0287549 -0.22333594 -0.33572647
0.070268705 0.16564554 0.10731951 -0.002283995 -0.2612954 0.079246566 0.02492885 -0.16148378
0.10140644 -0.1015132 -0.2353557 -0.061661303 0.30797285 0.2926405 -0.049360726 -0.04820596
0.37151712 0.14473085 0.105528876 0.13687834 -0.27500984 0.2829278 -0.2990903 0.4942659
-0.24194622 -0.011341773 -0.7996217 -0.6920502 0.017843973 -0.057055328 0.10090753 0.033460937
0.19338672 -0.02856986 -0.055948164 0.15705708 0.3767226 -0.5646044 -0.115758784 0.18777354
0.1672334 -0.16846277 0.45742467 -0.16869937 0.35609564 0.048083056 0.21794584 0.44901416
0.19318034 0.070635416 -0.46086866 -0.16873711 0.12344093 0.37353364 0.13026524 0.034636516
0.2639153 0.09233006 -0.42339745 -0.39400423 -0.6308639 -0.1583604 -0.7084043 0.13853277
-0.023798825 -0.2881523 -0.17753705 -0.6594002 -0.007930291 0.16153064 -0.14717434 -0.3247618
0.009218906 0.032643057 0.055988014 -0.018164963 0.6432817 0.021324288 0.56385213 0.01683951
0.6939379 0.008378404 -0.07642818 0.070101395 0.013094847 0.13631357 0.08443807 -0.072184056
0.11956032 0.046472784 -0.11247438 -0.029996362 0.030187437 0.008594548 0.054175667 -0.02411092
-0.022961533 0.007994659 -0.063337184 0.119473174 0.011147583 -0.019762365 0.06175202 -0.18378073

model/imdn_rtc_imdb1_c3/Conv2D f4 [12, 3, 3, 9]
00000000: 44d6 babe cf6c f1bd d2d2 563c 9a05 4e3e
00000010: e3af 4cbe 4eb6 7ebe 9451 6a3e e5c2 f03d
00000020: 779b efbc 5e62 50be b313 82be e858 b4bd
00000030: 34a8 28be b172 433d 47bc 0a3f 15f2 293e
00000040: 8299 ecbd c1b4 50bd c8a7 bcbd 56a0 bdbd
00000050: d11b 92bd d99d 63bc f158 67be dafc 05bd
00000060: a344 1d3e b0ec 10bd 816f 903d 47f9 8ebe
00000070: 0af9 91be 8f1c 6f3c b59b 4e3e 8e0a 6d3e
00000080: ac32 87bc ada8 983d ea1f f7bc 8f10 df3d
00000090: 1918 0ebd ad63 87be ddb8 10be 2322 dcbd
000000a0: faa1 c03e 8983 923e 04ba 0dbb 064b 26bf
000000b0: 2dc3 4c3e d73f c0bd c69c a1bd 1148 18be
000000c0: 83df 123c dd9e 4e3d 57da 9abd 5128 33bc
000000d0: e128 1ebe 3dc5 5d3e 9a7a c0bc b3c2 30be
000000e0: de8e 04bd f180 263e 8729 e0bb 5013 73bd
000000f0: 7f9b 583d 67a6 ee3b 7908 313c 138b a03d
00000100: 7b7c 013b 7898 2cbd f4c0 1abd b06f b73e
00000110: d45d 17be 877e 903d 3577 08be 0f07 723c
00000120: aac2 b3bc 9aba aebd d4cc 00bd 70a8 0dbd
00000130: 0c44 9a3d 9840 59bd c16b 813c db01 083c
00000140: 1c9f d9bd 391f 193f 8ca4 48be 4aa4 97bd
00000150: 727f eb3e 138e 5fbe 9577 c9be 188a dcbd
00000160: 0a21 183f d27b 85be e8f4 553f 9eed 0abf
00000170: b2d2 c0be e58f e0bf 7203 22be fc09 eebc
00000180: 9fa0 b8be a75c 8e3f f920 06be dfea c7bc
00000190: 8683 e9be fb90 d0be 50d5 343e 1d15 d4bd
000001a0: 49a5 8b3e 0566 c6bd 7dc2 3a3f 1e63 a2bd
000001b0: c8cd 913e 7070 fa3c f4a6 6ebe 404c 2c3f
000001c0: 8f3e c93c e9e8 24bf 876e 2dbe 98e2 ffbe
000001d0: 5b5d fe3e 42b8 8e3e 208f 09bf 3763 1cbf
000001e0: a1cf ddbe 65e0 52be 0981 02bf def1 8ebe
000001f0: a8fc 30be 05f5 363f fc2c fdbc 9efa 24bf
00000200: 263b cbbe b629 673e e51b 88be bc4a 063e
00000210: bd86 f03e d989 7a3f 26b8 1d3f 1021 40be
00000220: 23aa 97be b43a 4bbe 6f1f 6e3e b711 703d
00000230: ef5b b5be 2ed7 ca3e 69b2 a7bd 40f0 acbe
00000240: d6ba dfbd f037 7bbe 65d0 4dbe 12a4 85be
00000250: 37f9 7bbe 1dd3 8cbd a0b4 a73e f06a 153f
00000260: 801e 71bd d92b 2abf f241 d8be 2736 17be
00000270: 86f5 10be 9566 d53d 18f3 3ebe e6eb 35be
00000280: 32d5 c43d d632 09bf 1755 0ebc dcff 9d3d
00000290: 77f7 173e d17b 4fbd fcb6 0fbc 4d2a 2b3d
000002a0: d09d f9bc ed32 b73d 251c 1c3d 82b2 303f
000002b0: eb6d e73d a7c9 573e c2b2 083d 2eb0 cf3d
000002c0: d31c 3bbe 8abb 103e 3d03 833e 23a4 403e
000002d0: cefb 48be 0cf8 233e e4ea 7b3d 3bf0 17be
000002e0: 4a65 063e d5fc b2bd 7e9c 1f3c 4e9f b53d
000002f0: ff6e e43c 12d9 dc3c 8a62 2e3e 95fd 023e
00000300: b0a3 1bbe 0e18 26be e43c 6cbd 2058 3a3d
00000310: bc3d e83d 6c10 6fbd 0ccd 91bb b7a9 b83e
00000320: 8e42 473e 9f4f 80bd cb9c 81be fcb5 cf3d
00000330: 5af3 16bf 2fbf ea3e 9644 ea3e 17d1 67bd
00000340: 21fc 2a3e 3e56 873e 4ac2 fcbd a011 233e
00000350: 46c1 f0bd 7fb8 ce3d 07e1 b63e fd0d 86be
00000360: 13dc 0fbd 561b 1a3e fd2a 5f3d a214 18bd
00000370: 064b f3bc 6981 ce3c 782a aebd 9702 1f3e
00000380: 4b34 893d 36a5 a3bc 1612 073e 78b2 fe3d
00000390: 877f 3f3d 3132 84be b0a4 8cbd f312 863e
000003a0: c6b7 ae3e 580d 7c3b 5140 cf3d 7858 1f3e
000003b0: c9cf 183d 616b 123c 38c8 8abc ec21 94bc
000003c0: ff8f 9f3d de1b 1f3e 397f 913d 8fbe 993e
000003d0: f78b 0bbf eec3 a1be a67f cabe e742 96bd
000003e0: 066e 0ebf 1a3d 083f c835 883f c442 683e
000003f0: 34ac 2c3f e93e 78bd 5c7b c9be a132 11be
-0.36491597 -0.11788332 0.013111787 0.20119324 -0.1998897 -0.24874231 0.22882682 0.11755923
-0.029248936 -0.20350024 -0.25405654 -0.0880602 -0.16470414 0.0477168 0.5419354 0.16596253
-0.11552717 -0.05095363 -0.09211689 -0.09259097 -0.07134212 -0.013892614 -0.22592522 -0.03271184
0.15358214 -0.035381973 0.07052518 -0.2792456 -0.28510314 0.014594211 0.20176585 0.23148558
-0.016503654 0.07454047 -0.030166585 0.1089183 -0.03469095 -0.26443234 -0.1413302 -0.107486986
0.37623578 0.28615978 -0.0021625767 -0.64958227 0.19996329 -0.093871765 -0.0789123 -0.14871241
0.008964422 0.050444473 -0.07561176 -0.010934905 -0.15445282 0.21657272 -0.023495961 -0.17261772
-0.03236281 0.16260125 -0.006840888 -0.05934459 0.052882668 0.0072830203 0.010805243 0.07839026
0.0019758034 -0.042137593 -0.03778167 0.35827398 -0.14781886 0.07055383 -0.13326724 0.014772191
-0.021943409 -0.08531685 -0.03144534 -0.034584463 0.0753251 -0.053040117 0.015798451 0.008301224
-0.10626051 0.59813267 -0.1959402 -0.074043825 0.4599567 -0.21831541 -0.39349046 -0.10768527
0.59425414 -0.2607103 0.8357682 -0.54268825 -0.37660748 -1.7543913 -0.15821627 -0.029057495
-0.36060044 1.1122025 -0.13098516 -0.024403987 -0.45608157 -0.4073561 0.17659497 -0.103555895
0.2727454 -0.096874274 0.72953016 -0.07929061 0.2847731 0.030571193 -0.23305875 0.6730385
0.024565963 -0.6441789 -0.16936694 -0.49977565 0.496806 0.27874953 -0.53734016 -0.6108889
-0.4332247 -0.20593412 -0.5097814 -0.27918905 -0.1728388 0.7146762 -0.03090524 -0.6444491
-0.39693564 0.22574505 -0.26583782 0.13114446 0.46977797 0.9786659 0.61609113 -0.18762612
-0.29621992 -0.19846612 0.23254178 0.058610644 -0.35421702 0.39617294 -0.08188326 -0.33777046
-0.10924308 -0.24533057 -0.20099027 -0.26101738 -0.24606787 -0.06876204 0.32754993 0.583663
-0.058866978 -0.66473156 -0.42237812 -0.14766751 -0.1415616 0.104199566 -0.1864742 -0.1776577
0.09610976 -0.53593194 -0.008687279 0.07714817 0.14840494 -0.05065519 -0.008771654 0.041788388
-0.030470759 0.0894526 0.03811278 0.6902238 0.11300262 0.21073018 0.0333736 0.101410255
-0.18272714 0.1413404 0.25588408 0.18812613 -0.19627306 0.16012591 0.061503306 -0.14837734
0.13124576 -0.0873963 0.0097419005 0.088682756 0.027884958 0.026958976 0.17029777 0.12792046
-0.1519916 -0.16220114 -0.057675257 0.0454942 0.113399 -0.05836527 -0.0044494923 0.36066982
0.19458982 -0.062651865 -0.25314936 0.10142133 -0.58965075 0.45848987 0.45755452 -0.056595888
0.16697742 0.26432985 -0.12341745 0.15924692 -0.11755614 0.100937836 0.35718557 -0.26182547
-0.03512199 0.1504949 0.054484356 -0.037129052 -0.02969886 0.025208192 -0.08504194 0.15528332
0.06699427 -0.01997624 0.13190493 0.12436384 0.04675248 -0.25819543 -0.06867349 0.26186332
0.34124583 0.0038460102 0.10119689 0.15561092 0.037307534 0.008936734 -0.016941175 -0.018082581
0.07791137 0.15537974 0.07104344 0.30028197 -0.54510444 -0.31594795 -0.39550513 -0.07336979
-0.5563663 0.53218234 1.0641413 0.22681719 0.6745026 -0.06060687 -0.39351928 -0.1417947

model/imdn_rtc_imdb1_c4/Conv2D f4 [3, 3, 3, 9]
00000000: d6c1 68be 01c1 0cbe dc68 a1bb bb40 43bd
00000010: 6180 02bd 7a7d 893d 3826 3abd 8412 42bb
00000020: cf3a 54bd a37f 123f 5f89 b3bd 31d8 dcbc
00000030: cbcd bcbd 710f d1bd 8e6c 9b3d b4e1 ebbd
00000040: 67ed f13c fdaf 853e c0c6 7abd 0241 c53d
00000050: 1a3c 9f3a ae3c a9bd 89a6 b13d 4dbe e93d
00000060: 50ac 88bd 4819 193c 015d d5bf d560 93be
00000070: 7cc9 153d fcee 28bd 218c 46bd 0bbc 48bd
00000080: cb1c 8fbd de59 62bd 2f25 343d ad08 bbbd
00000090: 4526 04bf 2277 2a3b 2c09 a43d 242b 203e
000000a0: 35f6 47bf 19a2 59bf d993 82bc 8827 8d3d
000000b0: 642b 093e 4ee8 c6bd bd67 583d 66e4 893c
000000c0: 0634 79bd fd52 a13d 662c b7be 0715 9e3c
000000d0: c77b 3dbc 5783 183e 3bb4 22be 04c3 313d
000000e0: 9e94 0ebd ac29 dbbd 3de9 ad3c cb23 db3d
000000f0: 0b2f 85bd 6e46 d13a 68a8 39bd c5bd a23e
00000100: dd63 143d 0bc3 cbbd 9cd5 d9bd 0740 7b3c
00000110: 8ce0 94bc 9daa 24bd db83 03bd fdd4 d1bd
00000120: 646d 37bc 54a4 7a3c 4390 88bc 1ac4 7bbd
00000130: f903 e1bc efc3 20bd 3eec 6fbd bec1 46bc
00000140: bab2 17bd 9a64 15bf f5d0 40bf ed60 693e
00000150: 5f65 b1bd 2811 adbd e0fe a1bc 04e0 a53d
00000160: 2c61 18be 6c3b fe3d 2478 3cbc 9f86 cc3e
00000170: 690d 073e d9da 8b3e 29ae 15be ae42 053e
00000180: 6ca5 91be 56b9 6cbe 4f24 21bf 8f98 333e
00000190: 9f3d 00be c4a5 383e 6085 583d 1ba9 8abe
000001a0: 9174 ce3d 38b1 f2bd a517 03be 8da6 2d3e
000001b0: 8cac d63d 6ceb b13e 6710 d93e dc01 88bc
000001c0: 917b 2ebd c0df a9be 914b 26bc 5a69 56be
000001d0: 052c c13d 5ec1 84be b525 21bd 1479 af3e
000001e0: 7a77 88be 10fe 213f 5571 c8bf 07bb 3dbe
000001f0: f133 a9be aa94 9bbe 4308 f9bd 4c9f 29bd
00000200: d5f3 c4bc 3e94 c33d a9bd 35be f95a 1e3f
00000210: af4d a3bd a038 e53b 0f14 043d 5393 aabe
00000220: 00fb c3bd 61a8 443e ee1f c33d fd17 82be
00000230: 84f7 4abd 4c69 bf3d bbd6 41bc 5108 843e
00000240: 0af9 11be 00ae 80bd 461d ac3e 4385 a43d
00000250: 8585 7b3c 3cac 093f d32f 9fbc 9349 75bd
00000260: 83ca 723e 81be 91bd d6b1 a3bd b668 1a3e
00000270: ba95 0f3e ebbc 26be 5349 363d 9e3f a73d
00000280: 4fb2 8cbc 1851 a43d 11f9 98bf 5320 ab3e
00000290: 5d19 883c e167 cdbd d7d1 943c 1fb2 12bd
000002a0: 69e6 d23c 64ca c5bd 2c6f 1abe f6f2 6fbe
000002b0: 886e 7cbe 86f0 9ebd 962c 95be b492 7e3d
000002c0: a451 8fbc 1043 0b3e f4ac 78bd d0d3 d03d
000002d0: adf4 afbe b86d c13d 1be7 0dbb 5f17 d4bd
000002e0: f147 f13d 93e3 a93d b662 9a3d 8950 44bd
000002f0: 60cf bf3e 4839 99bf aaae ac3c dbee c73b
00000300: 2b09 cfbd 46e8 ce3d 7ced 3b3d bc03 8dbd
00000310: 7298 7ebd 5594 4ebe 2c91 16bf 8070 72bc
00000320: 4311 863d 74fc 133d 9bec 86be 7fc9 333f
00000330: 6298 993e 4328 05bd 0b57 a23d 5286 8ebb
00000340: 4400 9e3d 1227 07bd 46e6 c0bd 660a 823e
00000350: 1aa5 d4be 4ee7 c13d b4b5 2fbd caa1 503e
00000360: adb9 95be 073f 093d fab7 85bc 9874 b6bd
00000370: f43e 903d b043 833d c4f6 c7bd f5bc 41bd
00000380: aefb c1bd 7b61 cd3e 54eb db3c 4cbf 41bd
00000390: 039f fcbd b0f2 aa3d c860 273d d355 7abd
000003a0: f9b8 91bd c6f3 d9bd 57a3 92bd b442 1c3d
000003b0: 7b48 f8bc 83f9 96bd 9f66 9f3c eaad f5bd
000003c0: 9117 92bd b098 dabc ad61 cebd
-0.22730193 -0.137455 -0.0049258303 -0.047669154 -0.031860713 0.06713386 -0.045446604 -0.0029613087
-0.051813897 0.5722601 -0.08766436 -0.026958557 -0.092189394 -0.10208023 0.075890645 -0.11517659
0.029532148 0.2611083 -0.0612247 0.0963154 0.0012148649 -0.08263527 0.08674342 0.1141325
-0.06673491 0.009344406 -1.6669008 -0.28784814 0.036569104 -0.04124354 -0.04847348 -0.049007457
-0.06987914 -0.055261485 0.043980774 -0.09132514 -0.51620895 0.002601095 0.08009562 0.15641457
-0.7811006 -0.85012966 -0.01593964 0.068923056 0.13395458 -0.09712277 0.052833308 0.016832542
-0.06084063 0.07877157 -0.3577606 0.019297136 -0.011565155 0.14893852 -0.15889065 0.043398872
-0.0348097 -0.10701308 0.02122938 0.10700186 -0.06503113 0.0015966424 -0.04532662 0.31785408
0.03622805 -0.09949311 -0.10636446 0.0153350895 -0.018173479 -0.040201772 -0.03210817 -0.102457024
-0.011195514 0.015297968 -0.016670352 -0.061466314 -0.027467715 -0.039249357 -0.058574907 -0.012131153
-0.03703568 -0.5835663 -0.75318843 0.2279088 -0.08661913 -0.08450538 -0.019774854 0.08099368
-0.14880818 0.124136776 -0.011503253 0.39946458 0.1318871 0.27315405 -0.14617218 0.13013718
-0.2844652 -0.23117575 -0.6294603 0.17538665 -0.12523507 0.18031985 0.05286157 -0.27082142
0.10080827 -0.11850208 -0.12801988 0.16958065 0.104821295 0.34749925 0.42395326 -0.01660245
-0.04259831 -0.3317852 -0.010149852 -0.20938626 0.09432224 -0.25928777 -0.0393426 0.34272063
-0.26653653 0.63278294 -1.5659586 -0.18528377 -0.3304744 -0.3038686 -0.12159779 -0.041411683
-0.02404205 0.09549759 -0.17748131 0.61857563 -0.07973801 0.0069952756 0.032245692 -0.33315524
-0.09569359 0.19204856 0.095275745 -0.25408927 -0.049552456 0.09346256 -0.011830981 0.25787595
-0.14255157 -0.06283188 0.33616084 0.0803323 0.015351658 0.53778434 -0.019431984 -0.05988462
0.23710065 -0.07116414 -0.07992904 0.15079007 0.1402196 -0.16283004 0.04450352 0.08166431
-0.017174868 0.0802328 -1.1951009 0.334231 0.016613657 -0.10029579 0.018166466 -0.0358144
0.025744634 -0.096577436 -0.15081471 -0.23432526 -0.2465154 -0.0776072 -0.2913558 0.062151626
-0.017494984 0.13599801 -0.060711816 0.1019665 -0.3436636 0.09444755 -0.0021652642 -0.1035602
0.117813 0.082953595 0.07538359 -0.047928367 0.37462902 -1.1970606 0.02107938 0.006101472
-0.101091705 0.101028964 0.04588078 -0.06885478 -0.062157102 -0.20173772 -0.58815265 -0.01479733
0.06546261 0.03612943 -0.2635239 0.70229334 0.2999907 -0.0325091 0.079267584 -0.0043495083
0.077148944 -0.032996245 -0.09418921 0.25398558 -0.41532212 0.09467946 -0.042897895 0.20374218
-0.29243222 0.033507373 -0.016323078 -0.08908957 0.07043257 0.06409395 -0.09763864 -0.047299344
-0.09471832 0.40113434 0.026845612 -0.047301576 -0.123350166 0.0834707 0.040863782 -0.061117005
-0.07115359 -0.10642199 -0.07160061 0.03814955 -0.030307999 -0.07371809 0.019458113 -0.11996062
-0.07133401 -0.026684135 -0.10077224

model/imdn_rtc_imdb1_c5/Conv2D f4 [12, 1, 1, 12]
00000000: ef0b b0be d66b 28bc e72e 923e a6e3 2b3e
00000010: c665 253d 1b8d afbd a5a2 efbd d2f5 00bd
00000020: d7a6 abbd 6a52 2bbe 7ec8 0abe 0b99 eabc
00000030: dcfa 87bf 8622 abbe f91f 8a3d ef7b 25be
00000040: be00 373e 3812 32bd 0f35 5abd b651 61bf
00000050: f6e3 a0bd b1ef 863e b4a3 98bd 59b3 783d
00000060: 38f7 093f 0b98 253e e40c 103e ce90 a23e
00000070: ce71 7b3d 0106 75be 6ab9 39be f7b4 e1be
00000080: e7cd 943d 58bb b7be 9167 96be e9b7 e93c
00000090: 1c94 b9be fb99 883d 5740 37be 096f 3fbe
000000a0: e69a c83d a75f 9fbd fcbc 2f3e 7258 5e3d
000000b0: 44c5 1a3e 320b b83d 83e9 673c f9e3 25be
000000c0: 02f7 953e ad4d 66bf 413b 86be 6f29 58bb
000000d0: 195c 833e b368 0fbe 0bb8 c4bd b318 c1be
000000e0: 38d8 46be d71a 143e 2786 40be ed01 44be
000000f0: 0ed4 a63e 5387 e1bd da8c 9b3e f948 1cbd
00000100: e61e 1ebd a0f3 91bd 8fbf 9d3d ace9 6c3f
00000110: 5669 233e 8c92 acbd 4fab f13c 9500 2abd
00000120: c1ce c6be 0508 5ebe 1ce9 03be b794 103e
00000130: 0f12 8dbe 47c5 bb3d a377 283e dd25 d03e
00000140: 111a 4f3e 2392 22be 2bf4 153e d8d0 16be
00000150: 7a22 ccbf 27b8 5abe a682 1a3d 218c 31be
00000160: 1344 093e 37e2 c53b 2f12 033e 7e97 d5ba
00000170: 7380 f4bb d26e fc3c 41d4 efbc 1b7b cebd
00000180: 8abc 8e3f e10e 9abe b02b 8e3e 8950 a13b
00000190: cf3a 333d 1abb 053d ea0e 8fbb 2403 8f3f
000001a0: 6d6a 0c3e 2c79 1fbe c0c8 373e d5ee 863e
000001b0: f07d 23bf f752 e4bd b6dd febe 0967 65bd
000001c0: 844a 153e b3ff 34bd 231f 08be 22e1 50be
000001d0: b3c3 2c3d 7065 ed3c 1a32 94bc 9463 b23e
000001e0: 76dc 95be f842 813e cbcb 1abe 1772 e93c
000001f0: 9a25 ccbc 4743 7cbd 8820 0a3c 6894 2e3f
00000200: ee75 fd3c b737 8abd 025a 1cbd e1ba b1bd
00000210: 91e0 4e3f 0416 0dbe bf59 443e ae1d 47be
00000220: 8a71 0cbe baed 84bd 8c7b 8e3e acda 5c3e
00000230: 76d2 1c3c 5a86 c73d a268 ffbc 3e56 0cbf
-0.34384105 -0.010279616 0.2855141 0.1678606 0.04038026 -0.085718356 -0.11700944 -0.031484433
-0.083814315 -0.16730657 -0.13553044 -0.02863743 -1.0623431 -0.33424777 0.067443796 -0.16160558
0.17871377 -0.043474406 -0.053273257 -0.88015306 -0.0785598 0.26354745 -0.07453099 0.060717914
0.5389285 0.16171281 0.14067417 0.31751102 0.06138783 -0.23928072 -0.18137136 -0.44083378
0.07265835 -0.3588512 -0.2937589 0.028530078 -0.3624581 0.066699944 -0.17895637 -0.186947
0.097951695 -0.07781916 0.17161936 0.054283567 0.15114313 0.0898651 0.014154795 -0.16200246
0.29290015 -0.89962274 -0.26217082 -0.003298368 0.25656202 -0.14004783 -0.09605416 -0.37714157
-0.19418418 0.14463364 -0.18801175 -0.1914136 0.3258366 -0.11012139 0.303809 -0.03815553
-0.038603686 -0.07126546 0.077025525 0.92544055 0.15958151 -0.08426389 0.029500632 -0.04150446
-0.38829616 -0.21682747 -0.12881893 0.1411923 -0.2755284 0.09168487 0.16451888 0.40653887
0.20224787 -0.15876059 0.14643924 -0.14728105 -1.5948021 -0.21359311 0.037722252 -0.17338611
0.13404875 0.00603893 0.12799905 -0.0016295759 -0.0074616014 0.030814562 -0.029276015 -0.10082074
1.1151288 -0.30089477 0.27767706 0.0049229306 0.043757256 0.032649137 -0.0043657916 1.1172833
0.13712473 -0.15573567 0.17947674 0.2635409 -0.6386404 -0.11148637 -0.49778527 -0.056006465
0.14579207 -0.044189166 -0.13293128 -0.20398381 0.04217882 0.028979033 -0.018090297 0.34841597
-0.2926976 0.25246406 -0.15116803 0.028496785 -0.024920274 -0.0615876 0.008430608 0.681952
0.030940022 -0.06748908 -0.038171776 -0.086782224 0.8081141 -0.1377793 0.1917486 -0.19444916
-0.13715187 -0.06490655 0.27828634 0.21567792 0.009571662 0.097424224 -0.031177823 -0.54819095

model/imdn_rtc_imdb2_c1/Conv2D f4 [12, 3, 3, 12]
00000000: a207 cfbd 9324 773d 9f45 a73d cdf4 62bd
00000010: 47ee 05bd ce59 57bd d1aa f1bc 2eb6 5a3d
00000020: e023 c73d 067a 0dbe 5e70 2c3d 94c0 aeb9
00000030: 7e08 c33e 91af c63d 3042 13be 567a a0bb
00000040: 72b6 703d 0e3c bc3d 994c 473e 0903 193e
00000050: eae5 acbb 8a6f 3d3e 0894 62bd 1305 373d
00000060: 1f5b 253d 41dc 4e3d 5c16 84bc 32ed 13bd
00000070: 121e 96bb 5916 4e3c 0286 fd3c 2ae6 4c3d
00000080: 1299 303d ec3c 8bba 3c39 533b af05 9fbb
00000090: f2ee e03e c544 1d3d 5487 47be cf7e 1a3a
000000a0: 65c4 fb3c 44c8 ad3d ebb0 783e d28d 063e
000000b0: b584 adbd d35e 613e 8eae 3b3d 4590 22bd
000000c0: 1d7c 9ebf 23e0 2ebf 1087 073f b033 a03e
000000d0: cb14 023e e854 d2be 20de 44be 47b0 92be
000000e0: bb9d 873e 7be2 2bbf 5e3a 053f 9591 aabd
000000f0: 8765 f73d 98f6 db3d b750 65bd 4f10 b9bd
00000100: bbfb a13c 0d8f 2a3d 17f9 ff3d 3e95 f63d
00000110: 0856 893c cd69 c83c 763b 073d ecaa 01bd
00000120: f94e e93d ecdb c73d 5ec2 afba 756b cfbd
00000130: 1742 14bd a923 2d3e 101e c73c 3795 003e
00000140: 5416 f338 d79b 4bbd 45d3 2bbe 9380 083d
00000150: 3950 263e eb39 9a3d 94e8 e8bc 0162 22bd
00000160: 038b 8b3c 69dc 0e3d 628f d73d 5fbf 033d
00000170: 506e 0e3d 06fd 8e3d 1e3c 38bd 954d 863d
00000180: 95ce 6f3d 7868 3fbd 8b55 93bb 35bb 21bb
00000190: 4435 903c 892c 1abc ec34 c5bc b0f8 363c
000001a0: 58db 2e3d daca 9e3c de40 61bd eff4 4b3d
000001b0: 94be 093e f894 6bbe bbce 2d3d 3784 6dbc
000001c0: 7ff9 443d 36cf 9fbd ade5 283d ac95 793e
000001d0: 10e1 1a3e 1b5a 3abd 25d5 e0bc 28f2 c53a
000001e0: 85bf 003f e5a3 fbbd a971 c0bd f406 e23e
000001f0: 23cc cabd 27e0 a03e e8a2 97be f5e1 e03e
00000200: 64a9 8f3d cba2 d4be 4ade e7be acba eebd
00000210: 6e71 963d 44b7 973c 0824 78bd efe0 43bd
00000220: f5db 633d 8323 2bbe 58db d13d 70d1 6a3e
00000230: 8e34 433e 5a2e fc3c e0af 903e e797 a6bd
00000240: a0aa 053e e9ae 17bf 3cd8 10be 3c0a 4b3d
00000250: acb3 1f3d 4034 8d3d ceac d23c 3768 a13e
00000260: f371 7ebe 54da f53d 7cac 11be b560 2dbe
00000270: 4b58 db3e 65e3 203f c51b 673e aa50 163e
00000280: b59b a33e d392 3cbf 958c d03e 9719 323f
00000290: ca90 133e 49cf 603e b3d7 ce3e 3b8e 2fbf
000002a0: 7e07 04be 8481 94be 5e9e b4bd b7ad a4be
000002b0: d28f 973c ec35 433e 3a34 163d 13f8 0b3f
000002c0: d944 20be aa65 1b3e 09df 19be 8411 e7bd
000002d0: fccf 933e a650 7b3e f2f1 983d 7024 e2bd
000002e0: 2133 aebe ccaf 033e 5c45 fcbd 3e05 ad3e
000002f0: 5dde 523d 2a0b 5cbe 1487 d1bd 6100 323e
00000300: b4da a73e 9962 0abe 4a02 5e3c 65ec 45bd
00000310: 3ca4 e3bd f059 db3d c8e0 ccbd ffa8 c43d
00000320: 9864 b13d 6b32 0f3d ad73 c0be 23e9 9f3e
00000330: 079a 753e 9c8d f5bd 41a6 2fbc ffc3 013d
00000340: 88de a63d aabe 18be 01a8 b9bd 2a5c 233d
00000350: 0f7b 6d3e 0fb7 bb3c 9269 c7ba 3919 453e
00000360: 8b86 adbd 468f ad3d c13e 633c 0eef 18bd
00000370: a919 403c 6d8e 333d a082 a93c 7803 8bbe
00000380: 2f1b b8bc 584d e13d 2f97 dcbc 3d94 943d
00000390: b2fd d3be 264c f23d f9ea 533e 7df0 80bb
000003a0: 30cf b1bd 7b2c 0ebe adc9 d4bc 9550 b6be
000003b0: 35a6 9fbb 3104 5f3c 2bb4 2dbd 8406 263d
000003c0: 4b40 32be 0cc0 093e 88e5 2b3d cc5f 57bd
000003d0: 172b 383d 3050 153c b3c7 023e 9d98 44be
000003e0: e0f7 853c 3561 be3d 9a64 df3c 1d2a 2fbd
000003f0: 7bb6 73bd c2ca bf3d 7690 9d3d 49c1 f5bd
-0.10108878 0.060337614 0.08167576 -0.05540924 -0.032697942 -0.05257588 -0.029500397 0.053396396
0.097236395 -0.1381608 0.04209935 -0.00033331348 0.38092417 0.097014554 -0.14380717 -0.004897396
0.058767743 0.09191142 0.19462813 0.14942564 -0.0052764313 0.1849958 -0.055316955 0.044682574
0.040370103 0.05050302 -0.016123943 -0.03611488 -0.0045812214 0.01257857 0.030947689 0.05002419
0.04311473 -0.0010623015 0.003223016 -0.0048529725 0.439323 0.03839566 -0.19485217 0.000589353
0.030733297 0.08485463 0.24286239 0.13140038 -0.084725775 0.22008829 0.045820765 -0.039688367
-1.2381626 -0.68310755 0.52940464 0.31289434 0.12703244 -0.41080403 -0.19225359 -0.28650114
0.26487526 -0.67142457 0.52042186 -0.08328549 0.12079912 0.107403934 -0.05598518 -0.09036314
0.019773355 0.04164033 0.12498682 0.120401844 0.016764656 0.024464512 0.03301569 -0.031657144
0.11392016 0.09758744 -0.0013409366 -0.10127918 -0.03619584 0.16908135 0.024306327 0.12556921
0.00011591302 -0.049709167 -0.16779812 0.033325743 0.1624154 0.07530578 -0.028431214 -0.039644245
0.01703406 0.03487817 0.10525395 0.032164928 0.03477317 0.06981854 -0.044979207 0.06557766
0.05854662 -0.04673049 -0.0044962815 -0.0024678234 0.017603524 -0.009410032 -0.024073087 0.01116769
0.04268965 0.019383837 -0.054993503 0.049794134 0.13451606 -0.23006046 0.04243348 -0.0144968545
0.0480895 -0.07803194 0.04123466 0.24373502 0.15124917 -0.045496088 -0.027445385 0.0015102075
0.50292236 -0.1228712 -0.09396679 0.4414593 -0.09902217 0.31421015 -0.29616475 0.43922392
0.070147306 -0.4153045 -0.4528678 -0.116566986 0.07345854 0.018520005 -0.060581237 -0.047821935
0.05562969 -0.16712765 0.102469146 0.22931457 0.19063017 0.03078382 0.28259182 -0.08134442
0.1305337 -0.59251267 -0.14144987 0.049570307 0.038989708 0.068947315 0.025717165 0.31524822
-0.24848156 0.120045334 -0.14225954 -0.16931422 0.428408 0.62846977 0.22569187 0.14679208
0.31954733 -0.73661536 0.40732256 0.69570297 0.14410701 0.21954073 0.4039894 -0.685764
-0.12893483 -0.29005063 -0.08819269 -0.32163784 0.018501196 0.19063538 0.0366709 0.54675406
-0.15651263 0.151755 -0.15026487 -0.11282638 0.28869617 0.24542484 0.074680224 -0.11042106
-0.34023383 0.1286003 -0.12317917 0.33793062 0.051481593 -0.21488634 -0.10230842 0.17382957
0.32784045 -0.13514175 0.01355035 -0.048321147 -0.111153096 0.107105136 -0.10003811 0.09602546
0.08661765 0.03496019 -0.37588254 0.31232557 0.23984538 -0.119899005 -0.01072079 0.031681057
0.08147913 -0.14916483 -0.09065247 0.039882816 0.23191474 0.022914438 -0.0015213958 0.19247903
-0.08472928 0.08474593 0.013869942 -0.037337355 0.011724868 0.043837 0.02069217 -0.27151084
-0.0224739 0.1100108 -0.026927559 0.07254837 -0.41404492 0.118309304 0.20695104 -0.0039349184
-0.08682096 -0.13884155 -0.025975073 -0.35608354 -0.0048721083 0.013611839 -0.04240815 0.040533558
-0.17407338 0.13452166 0.041966945 -0.052581593 0.04496297 0.0091133565 0.12771492 -0.19198842
0.016353548 0.092958845 0.02726965 -0.04276477 -0.0595002 0.09364845 0.07693569 -0.11999757
